…
INFO:root:Sat Dataset dataloader created
Training dataset, length: 314664
V-jepa Total parameters: 1.611046912 B
INFO:dinov3:using base=100 for rope new
INFO:dinov3:using min_period=None for rope new
INFO:dinov3:using max_period=None for rope new
INFO:dinov3:using normalize_coords=separate for rope new
INFO:dinov3:using shift_coords=None for rope new
INFO:dinov3:using rescale_coords=2 for rope new
INFO:dinov3:using jitter_coords=None for rope new
INFO:dinov3:using dtype=fp32 for rope new
INFO:dinov3:using swiglu64 layer as FFN
Dinov3 Model: DinoVisionTransformer(
  (patch_embed): PatchEmbed(
    (proj): Conv2d(3, 4096, kernel_size=(16, 16), stride=(16, 16))
    (norm): Identity()
  )
  (rope_embed): RopePositionEmbedding()
  (blocks): ModuleList(
    (0-39): 40 x SelfAttentionBlock(
      (norm1): LayerNorm((4096,), eps=1e-05, elementwise_affine=True)
      (attn): SelfAttention(
        (qkv): LinearKMaskedBias(in_features=4096, out_features=12288, bias=False)
        (attn_drop): Dropout(p=0.0, inplace=False)
        (proj): Linear(in_features=4096, out_features=4096, bias=True)
        (proj_drop): Dropout(p=0.0, inplace=False)
      )
      (ls1): LayerScale()
      (norm2): LayerNorm((4096,), eps=1e-05, elementwise_affine=True)
      (mlp): SwiGLUFFN(
        (w1): Linear(in_features=4096, out_features=8192, bias=True)
        (w2): Linear(in_features=4096, out_features=8192, bias=True)
        (w3): Linear(in_features=8192, out_features=4096, bias=True)
      )
      (ls2): LayerScale()
    )
  )
  (norm): LayerNorm((4096,), eps=1e-05, elementwise_affine=True)
  (local_cls_norm): LayerNorm((4096,), eps=1e-05, elementwise_affine=True)
  (head): Identity()
)
Model Total parameters: 1.611046948 B
allocated mem from model setup: 18.511224269866943
Batch Size: 1
INFO:root:DistributedDataParallel(
  (module): ModelWrapper(
    (backbone): DinoVisionTransformer(
      (patch_embed): PatchEmbed(
        (proj): Conv2d(3, 4096, kernel_size=(16, 16), stride=(16, 16))
        (norm): Identity()
      )
      (rope_embed): RopePositionEmbedding()
      (blocks): ModuleList(
        (0-39): 40 x SelfAttentionBlock(
          (norm1): LayerNorm((4096,), eps=1e-05, elementwise_affine=True)
          (attn): SelfAttention(
            (qkv): LinearKMaskedBias(in_features=4096, out_features=12288, bias=False)
            (attn_drop): Dropout(p=0.0, inplace=False)
            (proj): Linear(in_features=4096, out_features=4096, bias=True)
            (proj_drop): Dropout(p=0.0, inplace=False)
          )
          (ls1): LayerScale()
          (norm2): LayerNorm((4096,), eps=1e-05, elementwise_affine=True)
          (mlp): SwiGLUFFN(
            (w1): Linear(in_features=4096, out_features=8192, bias=True)
            (w2): Linear(in_features=4096, out_features=8192, bias=True)
            (w3): Linear(in_features=8192, out_features=4096, bias=True)
          )
          (ls2): LayerScale()
        )
      )
      (norm): LayerNorm((4096,), eps=1e-05, elementwise_affine=True)
      (local_cls_norm): LayerNorm((4096,), eps=1e-05, elementwise_affine=True)
      (head): Identity()
    )
    (vjepa): VisionTransformer(
      (patch_embed): Identity()
      (blocks): ModuleList(
        (0-7): 8 x Block(
          (norm1): LayerNorm((4096,), eps=1e-05, elementwise_affine=True)
          (attn): RoPEAttention(
            (qkv): Linear(in_features=4096, out_features=12288, bias=True)
            (attn_drop): Dropout(p=0.0, inplace=False)
            (proj): Linear(in_features=4096, out_features=4096, bias=True)
            (proj_drop): Dropout(p=0.0, inplace=False)
          )
          (drop_path): Identity()
          (norm2): LayerNorm((4096,), eps=1e-05, elementwise_affine=True)
          (mlp): MLP(
            (fc1): Linear(in_features=4096, out_features=16384, bias=True)
            (act): GELU(approximate='none')
            (fc2): Linear(in_features=16384, out_features=4096, bias=True)
            (drop): Dropout(p=0.0, inplace=False)
          )
        )
      )
      (norm): LayerNorm((4096,), eps=1e-05, elementwise_affine=True)
    )
    (downsample): Conv2d(11, 3, kernel_size=(1, 1), stride=(1, 1))
    (normalize): Normalize(mean=[0.43, 0.411, 0.296], std=[0.213, 0.156, 0.143])
  )
)
INFO:root:Epoch 1
/home/lucianodourado/micromamba/envs/dinov3/lib/python3.11/site-packages/timm/models/layers/__init__.py:48: FutureWarning: Importing from timm.models.layers is deprecated, please import via timm.layers
  warnings.warn(f"Importing from {__name__} is deprecated, please import via timm.layers", FutureWarning)
…
